…
ic\nMaster Yi\nRiven\nEzreal\nLulu\n\n\n9\n25m 38s\nDefeat\nOrnn\nGraves\nSylas\nLucian\nAlistar\nIrelia\nHecarim\nAkali\nSenna\nLeona\n\n\n\n\n\n\n\n\n\n{'categories': 'auto',\n 'drop': None,\n 'dtype': numpy.float64,\n 'handle_unknown': 'error',\n 'sparse': True}\n\n\n\n\n(4028, 754)\n(4028,)\n\n\n\n\n\n\n\n(2577,)\n(2577, 755)\n\n\n\n\n\n\n\nModel: \"sequential\"\n_________________________________________________________________\nLayer (type)                 Output Shape              Param #   \n=================================================================\nflatten (Flatten)            (None, 755)               0         \n_________________________________________________________________\nlayer_1 (Dense)              (None, 30)                22680     \n_________________________________________________________________\ndropout (Dropout)            (None, 30)                0         \n_________________________________________________________________\nlayer_2 (Dense)              (None, 16)                496       \n_________________________________________________________________\ndropout_1 (Dropout)          (None, 16)                0         \n_________________________________________________________________\nlayer_3 (Dense)              (None, 16)                272       \n_________________________________________________________________\ndropout_2 (Dropout)          (None, 16)                0         \n_________________________________________________________________\nlayer_4 (Dense)              (None, 1)                 17        \n=================================================================\nTotal params: 23,465\nTrainable params: 23,465\nNon-trainable params: 0\n_________________________________________________________________\n\n\n\n\n26/26 [==============================] - 0s 806us/step - loss: 3.8032 - accuracy: 0.6613\naccuracy 0.6612903475761414\n\n\nWe got about 0.661 accuracy with just raw neural net
…
